app/src/main/assets/Plant_mode2.tflite (tflite, 848440 bytes, 16 tensors)

dense_2/bias f4 [27]
00000000: 6ccf d0bd a3d4 15be 3b8e d4bd 2aa3 dbbd
00000010: 9bf4 00be 01ff d6bd 66bd aabd 3a61 01be
00000020: 1f79 e9bd e640 963c 71cf 9abd 5bfa 5b3d
00000030: b125 45bd dc2e a13d 8acc 6dbd c201 953d
00000040: a7e4 cbbd 23cf ddbd 8b4a febd 6f71 853b
00000050: 9ffd 43bd 81c1 0abe d70b 0fbe 192b 0ebe
00000060: e050 3bbd e618 22bd 5f12 81bd
-0.101958126 -0.14631896 -0.10378691 -0.107244805 -0.1259331 -0.10497857 -0.08336906 -0.12634745
-0.11400055 0.018341493 -0.075590976 0.053705554 -0.04813165 0.07870266 -0.05805639 0.07275726
-0.09955721 -0.10830524 -0.12416562 0.00407236 -0.047849294 -0.13550378 -0.1396936 -0.13883628
-0.045731425 -0.039574526 -0.06302332

dense_1/bias f4 [64]
00000000: ec83 a0bc 212c 523d 5d28 53bc 6754 683d
00000010: e53f 2d3c ce51 283d ca90 f43a ca7e c33c
00000020: 1e5a 11bc 2e22 fa3c 8f68 ae3c e3d5 b33c
00000030: fd46 6bbb 6eed c239 6d2c b33d 7805 4b3d
00000040: 87ef 17bb 48e1 e83c 0736 693d b165 393d
00000050: 524a 4d3d 02eb 063c 3241 bebc 7806 b13b
00000060: 6723 e23b 2c32 543d 1dab a93c 1e3c 1bbd
00000070: 3abb 7fbb 329e 963d 5a95 f2bb dd4d a8bb
00000080: c169 0b3d 9b46 1e3b 5ded 6cbc 5c14 093d
00000090: e8c2 d6bc d7a0 273d b3eb 703d ba43 983d
000000a0: c6cc 363d be30 333d 2230 f93c 8000 2f3d
000000b0: 97ad 2d3d 920f 50bc 43cc c0bc 62bb 47bd
000000c0: 55cc 7b3b b235 a23c 1107 e63c 5f27 843d
000000d0: 578b fc3a 3592 603d f043 edbc af2f 1fbc
000000e0: d012 7fbd 287e 613d 7a41 a2bc bcc2 4d3d
000000f0: 4c03 82bc 9898 2e3d b863 473d 0aca 8d3d
-0.019594155 0.051311616 -0.012888041 0.056721117 0.010574316 0.04109364 0.0018658873 0.023864169
-0.008871583 0.030533876 0.021290092 0.021952575 -0.0035900467 0.00037179462 0.08748708 0.049565762
-0.002318354 0.028427735 0.05693629 0.045262996 0.050119705 0.008234741 -0.023224447 0.0054023825
0.006901193 0.05180566 0.020711476 -0.03789913 -0.0039021508 0.07354392 -0.007403058 -0.005136235
0.0340364 0.002415097 -0.014460889 0.03346668 -0.026215985 0.040924873 0.05881853 0.07434793
0.04462888 0.043747656 0.03041846 0.042725086 0.042401876 -0.012699025 -0.0235349 -0.048762687
0.0038421352 0.019800995 0.028079541 0.06452822 0.0019267601 0.054826934 -0.02896306 -0.0097159585
-0.0622738 0.055051953 -0.019806612 0.05023454 -0.015870713 0.042625993 0.048679084 0.069233015

dense/bias f4 [128]
00000000: 5fcf 083c 4511 473c 2cee e23c 32f1 d13b
00000010: 7faa 633c 94fb 113d 3c22 cf3c 8a21 873c
00000020: 722e fc3c 7b70 a43c 2f2e 02bc 6ae1 4f3b
00000030: f597 d73c 3b6e bb3c 2940 883c dacf 033d
00000040: adc1 c23c 765e 723c f247 fb3c 07f9 843c
00000050: 3e10 883c c6a0 c03c 57f2 a3bb 1986 6a3c
00000060: eaba cebc b74d b23b 934c ab3b 94d7 4d3c
00000070: 9b53 c93b 5c80 45ba 20b7 b3bc ccbe bd38
00000080: 0b37 993c a70b 0e3c 23fa 5cbc 4557 ae3c
00000090: e8cf 303c da18 f53c e6a3 6ebc 0fd1 d03c
000000a0: c5c6 b43c 9341 ef3c ef2e bd3b 3ce1 523c
000000b0: 549a 0c3d 0765 3e3d e222 793b 359e b73c
000000c0: 8253 143d 69fe 9f3c 29a1 cc3c 5f5b b63b
000000d0: f342 133c c90e 903c 29ad d03b 13d7 c63c
000000e0: 0dbb 4f3c 452a 17ba f1a4 003d 8e53 a33c
000000f0: ad42 003d 698c 3c3c 5d51 0e3d f5af c73c
00000100: 86f2 573c 5fea 743c d977 b33c dfc0 b63c
00000110: e891 043d 3e7b 793b 09fa d83c c228 2c3b
00000120: 1ca3 4f3d bb82 2a3b 5f16 3c3c 2bc0 803c
00000130: 49e8 c83c ed2d de3c c36c cc3c f76d 703c
00000140: a6b4 76bc 033c 84bc 784f cebc 3266 2d3d
00000150: 2fdd 4a3c 25f6 7b3c 8122 1fbc aa3b c93c
00000160: 63d3 6a3c d7a7 0c3c 0a8c 213c 8696 9b3c
00000170: 2fcd a03b 9bba af3b b0b6 183d 5245 c13b
00000180: f5a7 ec3c 0bae 9c3c c48f 90bc 1a2a f23b
00000190: e7b6 0d3c df24 013c e6f2 453b 2ac3 683c
000001a0: ef5c 6d3c d183 063c 8d96 e03c bdba b63c
000001b0: d495 2d3b ef39 b03b b244 833c c559 933c
000001c0: 3819 c33c 4b13 fd3c 5cf3 cc3c 97bc bc3b
000001d0: 9109 bd3b db82 a93b 8c4b d83c 0bd4 1e3d
000001e0: 15c2 a13b cf7a 463c 73c9 da3c a1dc c43c
000001f0: 280e f13c a989 073c c942 043d 1554 203c
0.008350222 0.0121501135 0.02770146 0.0064069265 0.01389563 0.035640314 0.025284879 0.016495485
0.030783866 0.020073166 -0.007945581 0.003172005 0.026317576 0.02287971 0.016632156 0.032180645
0.023773992 0.014793029 0.030673955 0.016232027 0.016609307 0.023514163 -0.0050032544 0.014314198
-0.025235612 0.0054413932 0.005227634 0.012563605 0.0061439998 -0.00075340807 -0.021937907 9.047761e-05
0.018703004 0.00866977 -0.013487372 0.021281848 0.010791756 0.029919077 -0.014565444 0.025490312
0.022067437 0.029206073 0.005773417 0.012871083 0.034326866 0.046483066 0.0038015177 0.022414306
0.03621245 0.019530492 0.02497919 0.0055650915 0.00898813 0.017585175 0.0063682985 0.024272477
0.012678874 -0.00057664915 0.0314073 0.019937303 0.031313587 0.011508086 0.034745563 0.024375895
0.013180381 0.014948457 0.021907734 0.022308765 0.03236571 0.0038067843 0.026486414 0.002626941
0.050692663 0.0026017863 0.011479943 0.015716633 0.024524825 0.027121508 0.024954205 0.014674655
-0.015057718 -0.016141897 -0.025184378 0.04233379 0.012381836 0.01537851 -0.009712816 0.024564583
0.014332625 0.008584938 0.009860048 0.018992674 0.0049072723 0.0053628213 0.0372836 0.005898156
0.028888682 0.019125959 -0.017646678 0.007390273 0.008649564 0.007882326 0.0030204593 0.014206687
0.014487489 0.008210138 0.027415538 0.02230584 0.002648701 0.005378 0.016023967 0.017987141
0.023815736 0.030892989 0.025018387 0.0057597863 0.0057689627 0.00517307 0.026403211 0.03877644
0.0049364665 0.012114241 0.026707387 0.024030985 0.029425696 0.008272567 0.032290254 0.009785672

conv2d_3/bias f4 [64]
00000000: b6eb 90bb f83f 323b 900e 5eb7 b203 d4bb
00000010: 7aed d33a b3ae 9a3c de8c 98bb 5e48 9fbb
00000020: 3153 43bb ca8f 08bb a931 803b 519a 023c
00000030: 80fe 193c be82 42bb 52b9 02bb b7d0 f13c
00000040: 53ea 883b 0a57 11bb 112b a93a c339 853b
00000050: 0f81 b0bb e69d b13a d401 233b a8cf 643c
00000060: 2c32 5bbb a27e 73bb 29b2 e8ba 3308 4bba
00000070: 49f7 013c ba6f 9abb 2a65 81bb 97dd 57bb
00000080: 8241 233c 0a4a 91bb dc0b 403b 7429 7fbb
00000090: 3197 5dba 3707 28ba 6c98 b8bb 387d 5339
000000a0: 4d65 8bbb 18bf 393c 48b3 fa3a ddc3 ca3c
000000b0: 2505 9bbb 4058 28bb 804f da3c 5662 753c
000000c0: 5e1f 58bb c702 6d3c 534f 9aba 8b56 87b9
000000d0: 0cb4 1b3b 903c 363c 32f2 ae3c 2c58 123b
000000e0: bb71 8cb8 0ce7 673c 2db5 903c 644a 513c
000000f0: b9c8 bbba cb3f b239 8993 6539 3f3f b73c
-0.00442263 0.0027198773 -1.3235622e-05 -0.006470167 0.0016168796 0.018882131 -0.0046554646 -0.0048609218
-0.0029804225 -0.0020837658 0.00391217 0.007971362 0.009399056 -0.002967998 -0.0019946885 0.029518468
0.0041783242 -0.0022177123 0.0012906512 0.0040657236 -0.0053864787 0.0013551086 0.0024872916 0.013965525
-0.0033446653 -0.0037154336 -0.0017753291 -0.0007745057 0.0079324925 -0.004713026 -0.0039488273 -0.0032938474
0.009964349 -0.004433875 0.0029303944 -0.003893462 -0.000845301 -0.00064097665 -0.0056334045 0.00020169176
-0.0042540194 0.011337064 0.0019126916 0.024751598 -0.004730838 -0.0025687367 0.026649237 0.014977058
-0.003297768 0.014465994 -0.0011772908 -0.00025813686 0.002375844 0.011122838 0.021355722 0.0022330387
-6.696904e-05 0.014154207 0.017664516 0.012774084 -0.0014326788 0.00033998335 0.00021894103 0.022369025

conv2d_2/bias f4 [64]
00000000: 53fb 393c 0d21 703b 3eba 5d3b a7cf 093c
00000010: 6766 0ebc 0319 463c fd39 013c a2e7 923b
00000020: 8eaa 323b 279a 263b 4eed 86ba 5c0f 03bb
00000030: 8bd5 bb3b 8683 ca3a cfc1 1a3c dca5 f23a
00000040: e89e d5bb 015c 65bb ec02 45bb 7ab9 fa3b
00000050: f0e2 82bb 5472 273b 54ef a13a 6859 d53b
00000060: dc03 2bbb 8b8e 3d3b e129 6038 de07 213c
00000070: 3cd9 98bb 9d92 e4ba 5fa5 9439 f1a4 8f3a
00000080: a4ea 953b fa2f 1b3b 878f 563b 192f aa3b
00000090: 2b62 3abb 1cfe 03b9 0082 f8ba f2bb 293c
000000a0: f352 40bc 9380 313b 10f6 8ebb cc70 8d3b
000000b0: 1266 c23a e833 6ebb aaed d33b 2765 0e3c
000000c0: 35cd bc3b 0c09 14ba 8600 dc3a d32e e0bb
000000d0: c3dc 223c c8de 423b 7f63 afbb 09e4 253b
000000e0: 586d 613c 23ba 9aba 9c8c 98bb 6677 e4bb
000000f0: 73c7 6d3c 5b25 e83b 18f1 61bb 21d3 33b9
0.011351424 0.0036640794 0.0033832933 0.008411325 -0.008691407 0.012090924 0.007887361 0.004483179
0.0027262303 0.0025421472 -0.0010294111 -0.0019998169 0.0057322434 0.0015450574 0.009445622 0.0018512565
-0.0065191872 -0.0034997466 -0.0030061556 0.007651505 -0.003994338 0.0025550323 0.001235465 0.006510902
-0.002609483 0.0028924074 5.3444764e-05 0.009828536 -0.004664568 -0.0017438714 0.0002835197 0.001095919
0.0045750905 0.002367972 0.0032739358 0.0051936028 -0.002843986 -0.00012587797 -0.0018959641 0.010359751
-0.011738527 0.0027084693 -0.004362829 0.004316425 0.0014831445 -0.0036346857 0.0064675407 0.008691109
0.0057617673 -0.00056471 0.0016784824 -0.0068415194 0.009940329 0.0029734839 -0.005352437 0.0025312921
0.01375898 -0.0011804741 -0.004655434 -0.006972241 0.014512884 0.0070845312 -0.0034475978 -0.00017149422

conv2d_1/bias f4 [32]
00000000: c31c 6abb e7fc e53b 836f a939 37a4 a73b
00000010: 7058 c33b f65d d63b 0761 c53b 66d9 903b
00000020: bb3c 463c d4d7 153b c35f 06bc 97a6 11bc
00000030: 8cd0 013b b2a4 5f3a 80d2 c23b cb13 05bc
00000040: 769a 05bb b4a7 f0ba 8279 c63b 25db be3b
00000050: b295 ccba dd38 78ba c441 0d3c de4b e8ba
00000060: 8eec f03a 3e8e 9239 ec35 25ba c0cf b33a
00000070: 3618 643b 1b7a 65bb a4f5 cf3b f283 e03b
-0.003572271 0.0070186737 0.00032317275 0.0051160115 0.0059614703 0.0065419627 0.0060235295 0.004420447
0.01209944 0.002286424 -0.008201542 -0.008889816 0.0019808142 0.00085313164 0.0059455037 -0.008122395
-0.0020386255 -0.0018360526 0.0060569653 0.005824464 -0.0015608578 -0.00094689225 0.008621637 -0.0017722805
0.0018381046 0.0002795327 -0.00063022855 0.001371853 0.003480447 -0.0035015407 0.0063464213 0.0068516666

conv2d/bias f4 [16]
00000000: 7c12 133c a1e4 25bc 22bd 7c3a 1e8f a03b
00000010: 6d3b 2abb 18e7 88bb c3bb a4bb f460 813b
00000020: d9b5 c73b 69b3 5f3c dfcc 8aba 4e47 c43b
00000030: 09f4 eabb c90a 863b 0843 863b 5c37 4bbc
0.008976575 -0.01012531 0.000964122 0.0048998734 -0.0025975362 -0.004177939 -0.0050272658 0.0039483253
0.006094676 0.013653615 -0.0010589621 0.0059899455 -0.0071702045 0.004090641 0.004097346 -0.012403335

sequential/batch_normalization/FusedBatchNormV3 f4 [64]
00000000: bbb6 e941 3354 fb41 9ec2 de41 7782 e541
00000010: f196 f741 952f e741 8ad0 f841 3802 fc41
00000020: faa0 fb41 8b3a fb41 c074 ef41 5ba9 e341
00000030: 6a85 eb41 cc62 fc41 d5ee fb41 5c1c e841
00000040: 3f94 de41 7f7b fc41 d47e f641 bf18 ef41
00000050: 0126 fc41 f86f f841 04a8 e041 7168 df41
00000060: 647c fc41 5b92 fb41 aac4 ed41 97cc f741
00000070: f14b e641 0511 fc41 a01f fc41 fbc8 fb41
00000080: 13d8 db41 2bb3 fa41 aabc f141 7325 fc41
00000090: 1b97 0142 b253 f641 3666 fd41 7a23 e341
000000a0: 57d4 fc41 e67b e341 4f5d f841 6332 e341
000000b0: b5d5 fb41 3be1 fb41 9f54 e441 054d e841
000000c0: 7448 fc41 89c4 e641 dc41 f841 d6ad fa41
000000d0: 53e9 fa41 c3fa da41 c9dc de41 784b fc41
000000e0: 4ec4 f441 ff14 eb41 6bf9 e741 b8a2 e041
000000f0: b83b f741 24e6 f441 37b0 da41 15fc e441
29.214224 31.416113 27.845028 28.688704 30.948702 28.898233 31.101826 31.501083
31.453602 31.403585 29.932007 28.457693 29.440144 31.54824 31.491617 29.013847
27.822386 31.5603 30.811928 29.887083 31.518557 31.054672 28.082039 27.925997
31.560738 31.446463 29.721027 30.974897 28.78708 31.50831 31.515442 31.473135
27.480505 31.337484 30.217121 31.518286 32.397564 30.790867 31.674908 28.392323
31.603682 28.435497 31.04556 28.399603 31.47935 31.484976 28.541319 29.037607
31.535378 28.845964 31.032158 31.33488 31.363928 27.372442 27.857805 31.53685
30.595852 29.385252 28.996786 28.079453 30.90416 30.612373 27.336042 28.623087

sequential/batch_normalization/FusedBatchNormV31 f4 [64]
00000000: 2316 36be 3fbb 983c 6219 43bf af14 82be
00000010: a7b0 08bd b10f a6bf 8a67 69bd a64a 613d
00000020: 3279 6d3c c5a6 01bd b4f8 95be 227c fabe
00000030: 52f1 39bf 20ba a1bc 709d 1fbd 77f5 b9bf
00000040: d202 19bf 21ed 423d a20d 1cbd a2a0 9ebe
00000050: 92e0 363d cb27 22bd c146 e5be 924f aabf
00000060: e428 aa3c dded 8a3d b3da 06be 9ebe 8dbd
00000070: 0195 81bf 7966 14bd b746 45bd 1de1 ffbc
00000080: cd3b adbf dfe0 84bd 7154 3bbe b528 453d
00000090: 0f86 52bd 0c92 6fbd 134a 2b3d 8217 2cbf
000000a0: 2d43 42bd 8af4 90bf 0059 4fbc 782a c0bf
000000b0: 6dba 8fbd 40d1 efba b382 bbbf 9ce0 6ebf
000000c0: f9ad 2ebd adb0 68bf 60f9 033b b827 c93c
000000d0: de00 523c d213 92bf 2585 a5bf 37b8 a43c
000000e0: 6e71 a1bd 6908 b5bf 3e10 aebf dc02 82bf
000000f0: eee9 e6bc f253 a0bc f2d4 53bf 7f7f 9bbf
-0.17781882 0.018643973 -0.76210606 -0.25406405 -0.033371594 -1.2973539 -0.05698351 0.05500283
0.014494227 -0.031653184 -0.29291308 -0.4892283 -0.7263385 -0.019742072 -0.038968503 -1.4528035
-0.5976993 0.047589425 -0.03809894 -0.30981928 0.04464776 -0.03958873 -0.44780543 -1.3305533
0.020771451 0.0678365 -0.13169365 -0.06921123 -1.0123597 -0.036230538 -0.048163142 -0.031235272
-1.3533875 -0.06488203 -0.1829393 0.048134524 -0.05139738 -0.05848889 0.04181869 -0.6722337
-0.047427345 -1.1324627 -0.012655497 -1.501296 -0.0701798 -0.0018296614 -1.4649261 -0.93311477
-0.042646382 -0.90894586 0.0020137653 0.024555072 0.01281759 -1.1412299 -1.2931257 0.020107372
-0.07882963 -1.4143192 -1.3598707 -1.0157123 -0.028187718 -0.019571278 -0.82746804 -1.2148284

sequential/dense/MatMul f4 [128, 256]
00000000: 9fbd 96bd 321a 64b9 cbc1 d2bd 3221 24bd
00000010: 0961 193d 0685 b73d 1fe9 77bd 40ff 49bd
00000020: 77c3 023e 11b4 143d 8b60 d5bd ef5d c8bd
00000030: 823b 803c c4e0 99bd 4e74 883d 51bb f4bc
00000040: 5fbe 853b 6758 b1bc e0cf 503d c1f0 ab3d
00000050: 821f 513d 8aee 4c3d 62bd b33d 2779 88bd
00000060: 83e1 ed3d 0b54 dfbd a708 c73d 3bcb b7bc
00000070: 5256 843d a0ad e83d c8ad 863d 749e 633d
00000080: 3bbc 953d 29eb bf3c bb3a 71bd a101 d3bd
00000090: 7346 02bc 36b4 d13d 900f a53d c706 663d
000000a0: 8170 85bc fb50 c6bd c6cc bd3c 887d 2bbc
000000b0: 2e7f d93d 6ef8 adbd dcf6 9fbd fe05 91bb
000000c0: 8cbe 373d f767 683d 0165 c63d dc07 ecbd
000000d0: 6d3b 12bc 2d97 c6bc 6af0 2bba c09e 3bbd
000000e0: 9dbe 92bd 2253 56bd c646 873d 704f e23d
000000f0: a32b 7fbd e665 0fbd 6384 b83d 5996 efbd
00000100: 985b 5ebb 3989 963d 3463 383a d9f4 58bc
00000110: b0ca e13c c33c af3d 4948 d23d 2bf6 babd
00000120: 8e3d de3c f8cd 2d3d 207e abbd 463b d83d
00000130: 6f2a d93d 9812 82bc 2630 12be 4ec0 813d
00000140: d3f7 6bbc 0d66 ca3d 1fbb e9bd bf70 a4bd
00000150: c945 eabd 6c82 d63d d8bd 313d 1b2a b3bd
00000160: 2ed7 b9bd c887 77bd 7c06 31bc 84ed d9bd
00000170: 323e 803d dbca c13d b7ae 113d af5e 9c3d
00000180: b18c 7a3d fb9d d1bc d22a 1abd ea57 9abd
00000190: dd22 b2bd 1155 7dbb 5189 d4bc b431 42bd
000001a0: a02d 8bbd ff15 c1bd 7bf0 02bd 2b8c 80bc
000001b0: 4464 063b ea5d a2bc 0380 4c3d c74e 3fbb
000001c0: f7e4 c23d 9efe 8b3c 2044 ef3c 27f6 f93d
000001d0: 37ca a0bd a3d7 b9bc 0834 443d 4595 de3d
000001e0: 3161 06bd 4d12 b2bd 3b99 59bd c3ac 3fbd
000001f0: 9f7b b0bd 5f63 f2bd 0977 2bbd 8b7a 14be
00000200: 6f71 47bd e3be 2a3d 8047 a9bd 9b59 453d
00000210: 8170 46bc ddac 423d 01a1 7dba e4c8 6cbc
00000220: 6a9d b7b9 fb15 4f3d 0922 4c39 16a5 7b3d
00000230: 0629 ae3d 133a a5bc 82f4 8b3c a341 c83d
00000240: 5f56 893d bda6 b23d 0607 583d b875 bc3d
00000250: 5ca2 d9bd f6a0 e0bd 2ca2 09be 4833 633b
00000260: c9c3 a6bd b5b5 1bbd 6c24 0ebe 025e af3d
00000270: ffaa b0bd 1a9e f9bd 2412 c6bd a37a 943d
00000280: a95d d63d c866 12bc 08c2 f0bd 4e90 803d
00000290: d66d 673d 6f1d c63c c454 42ba 0edb b13d
000002a0: 5832 9dbd 241c 8cbd 12e0 e3bc 867f 7cbd
000002b0: f91e b23c 8533 f1bc 0ec8 803d 52ac 2f3d
000002c0: a0c9 99bd 1e01 3f3a df54 d23b bbcd e33c
000002d0: f35c 0a3e 629a f9bc 69c4 d0bd f2be 943d
000002e0: 7f5d e8bc 622a f23d da0b acbd fd04 00bd
000002f0: f803 7abd 3a52 3a3c d78d 6f3d f376 7f3c
00000300: 6c66 df3d 0586 7dbd b28e 6f3c b617 cc3d
00000310: 2935 4dbd 8c55 cabd d255 dcbd 6ba4 063e
00000320: d5c3 f83d c8bc 6abd 1635 b63d 2e5e e23b
00000330: 4f8a 69bd a6fe 6b3d 8779 d5bd 39d7 2fbd
00000340: db63 fbbd 07cc 283c 5f5e 10bd 4273 8b3d
00000350: 4715 f23d 35e3 f8bd 130c 933d 0024 8d3d
00000360: 1599 c5bd 074f ccbd d04b b3bc 4a13 123d
00000370: 3d5e bebd 1c96 d3bd 2a78 913d 2fa2 96bd
00000380: e268 31bd 5868 f4bd cbda 8c3d a16d 4f3d
00000390: 5062 dcb6 5dba 8dbb 036b 1c3d 64bb d4bd
000003a0: 68dd 9b3d 7c32 84bd 7b9e db3d d4f9 cbbc
000003b0: e0e4 d6bd 5fc2 9d3d f623 d33d 88d0 be3d
000003c0: d6fb 13be 6522 f0bd 1302 b0bd c17c d1bc
000003d0: 3149 613c a892 ecbd f8fc ad3b b359 f9bc
000003e0: 1758 d6bd c74e 833d 83dc 81bd 415e 46bc
000003f0: 8458 cdbd 9a32 4f3a f792 7abb a96e 7bbd
-0.07360386 -0.00021753533 -0.10290869 -0.04007072 0.037446056 0.08960919 -0.060525056 -0.04931569
0.12769876 0.036304537 -0.10418805 -0.097835414 0.015653376 -0.07513574 0.06662808 -0.029874476
0.004081532 -0.021648599 0.050979495 0.083955295 0.05105544 0.050032176 0.08776356 -0.06663733
0.116152786 -0.10904702 0.09718447 -0.022435775 0.06461777 0.11361241 0.06576115 0.055571035
0.07311293 0.023427563 -0.0588939 -0.10303045 -0.007951367 0.10239451 0.08059609 0.056158807
-0.016288998 -0.096834145 0.023168933 -0.010466941 0.10619961 -0.0849465 -0.078107566 -0.004425763
0.044859454 0.056739774 0.09687234 -0.115249366 -0.008925301 -0.024242008 -0.0006558957 -0.045805693
-0.07165263 -0.052325375 0.06605296 0.11050308 -0.062297475 -0.035009287 0.09009626 -0.116985984
-0.0033929106 0.07350392 0.00070338254 -0.01324197 0.02756247 0.08556511 0.102676935 -0.09128984
0.027128961 0.042432755 -0.08373666 0.105581805 0.10603797 -0.015878007 -0.1427618 0.06335507
-0.014402348 0.09882746 -0.11412644 -0.08029317 -0.11439092 0.10474095 0.04339394 -0.08748265
-0.090742454 -0.060432225 -0.010804769 -0.10641006 0.06261863 0.0946252 0.03556701 0.07635247
0.06116933 -0.025588026 -0.037638493 -0.075362995 -0.08698056 -0.003865544 -0.025944384 -0.04741068
-0.06795812 -0.094280235 -0.03196762 -0.015691837 0.002050654 -0.019820172 0.04992677 -0.0029191242
0.09516328 0.017089184 0.02920729 0.12205153 -0.078510694 -0.022685831 0.047901183 0.10868315
-0.032807533 -0.08694897 -0.053124648 -0.046795618 -0.08617329 -0.1183536 -0.041861568 -0.14499871
-0.048692163 0.04168595 -0.08265591 0.048181158 -0.012111784 0.047528137 -0.00096751755 -0.014452193
-0.00035021763 0.05055807 0.00019467635 0.061436735 0.08503918 -0.020169294 0.017084364 0.09778144
0.06705927 0.08723209 0.052741073 0.092021406 -0.10626671 -0.10968201 -0.1344077 0.0034668017
-0.08142812 -0.038015086 -0.13881081 0.085628524 -0.08626365 -0.121883586 -0.09671429 0.072499536
0.10467083 -0.008935638 -0.117557585 0.06277524 0.056501232 0.024183957 -0.0007413144 0.086843595
-0.07675618 -0.06841305 -0.027816806 -0.061645053 0.021743285 -0.029443512 0.062881574 0.042888947
-0.0750916 0.0007286238 0.006418809 0.02780806 0.1351202 -0.030469123 -0.10193712 0.072629824
-0.028364895 0.1182449 -0.08400698 -0.031254757 -0.06103894 0.011372143 0.05848488 0.015592325
0.10908207 -0.06189539 0.014621424 0.0996546 -0.050099526 -0.09879598 -0.107585564 0.13148658
0.12146727 -0.057308942 0.08896844 0.0069081997 -0.057016667 0.0576159 -0.1042357 -0.04292986
-0.12274905 0.01030255 -0.03524625 0.06809093 0.118204646 -0.12152711 0.07180037 0.06891632
-0.09648339 -0.09976011 -0.021886736 0.035662927 -0.09295318 -0.103313655 0.071029976 -0.07355153
-0.043312915 -0.119339645 0.06877669 0.05064166 -6.567956e-06 -0.0043251947 0.03818799 -0.103873044
0.07610589 -0.06454942 0.10723587 -0.0248994 -0.10492873 0.07703089 0.103095934 0.09317118
-0.14451537 -0.1172531 -0.085941456 -0.025572183 0.01375036 -0.1155141 0.0053096972 -0.03043828
-0.104660206 0.0641151 -0.063408874 -0.012107433 -0.10026649 0.00079039636 -0.003823457 -0.06138483

sequential/dense_1/MatMul f4 [64, 128]
00000000: 91d0 bbbb 0352 c63c 537b 35be b147 10be
00000010: 6320 d43d 4b9b cebd 6959 34be 0466 adbb
00000020: ba13 9a3d ed23 543d 9dde 8a3c 3ad0 d2bd
00000030: 1443 b33d 5d61 0b3c a115 a63d 3a55 90bc
00000040: 8cef 363d 58db 5dbd 6814 83bc a7ee a63d
00000050: 6d7c 39be 443a e839 b8c1 293e 1287 183e
00000060: 22de e03c 29ac 0a3d 8b4d 1dbd 65e5 02be
00000070: 9375 4bbe a055 553d d24c cabd 90f7 9dbd
00000080: 1b79 2f3e ef2a 81bd 7c38 4c3d ed56 f1bd
00000090: 3fd8 6bbd dc3e 9f3d f84f bb3d edcc d63b
000000a0: e248 b33d 0a41 043d 8bfd 68bc 999e 15be
000000b0: 4619 f5bd a082 82bd fd02 d23d 35a2 7bbd
000000c0: 1a06 4e3d 7e31 f8bd 66d5 cf3d 55db ba3d
000000d0: 8fdc afbc 204b 193d 4130 8d3c 5b93 183e
000000e0: 4206 563c e4d6 c6bb 0f57 a6bd 30f7 6b3d
000000f0: 0f9f 9f3d c0f0 d4bd bf5b 923c b61e 10be
00000100: e6a6 033e b03b a13d b085 cd3c 851f 37be
00000110: 1b76 74bc d673 f03d 0a6f 923d 5a05 49bc
00000120: be9e 033c 57e4 d4bc 541e 313c 1eeb 153e
00000130: f455 763c 0538 623d 25ad 4038 7c4e 42be
00000140: a792 01be 8632 90bd 42e6 b03d f24b 79bd
00000150: 586b c53d 135a c2bd b9f9 2a3e ea40 d6bd
00000160: fb1c c2bd 4100 243c 4b93 fc3d 5715 df3d
00000170: 3901 21be 44fb 49be 2b62 23be d84a ff3b
00000180: e876 7c3d 84ae 0fbd 36dd 593d 87a3 bfbd
00000190: e75b 13be eeb1 89bd a3b1 d6bd 82bd f13d
000001a0: db92 cf3d 0848 91bd 3f91 afbd ba4b 94bd
000001b0: 5aeb 49bd e652 2dbe fd3d ac3b 51c3 9fbd
000001c0: ed44 7c3d 7ab3 0b3d 6428 043c d9c3 923d
000001d0: 44c7 3abe 848e cb3c 02ee 203d d1f0 9b3d
000001e0: 7a59 9ebd ab8e b53c 7206 ff3d 4684 3ebd
000001f0: 7291 ec3c fe10 80b9 9e51 f4bd 1418 923d
00000200: 8222 353e 853a cb3d 2dc0 e83d 676b 363e
00000210: b529 30be 10d8 2a3e 7efe 1fbd b1f5 ddbd
00000220: c425 1d3d dd60 a43c d7c4 7d3d af1e f23d
00000230: cb7a fc3d c5d5 273e 777c 823d d47f 353e
00000240: 28e2 623d 8a88 5f3e e15b cabd 3e20 903d
00000250: 3284 6d3d cd1e cfbd 6d88 5a3c d8f2 a2bd
00000260: 5f2a d23d b6a7 9dbd 81ed 803d eb48 86bb
00000270: a828 c83d 152a c03d 12b4 b23d e6e3 9bbd
00000280: 41da 8ebb 333e d03d 4b18 243d 939a 453c
00000290: 4ff6 65bd a243 d0bd f3a4 12be 3ee4 f4bd
000002a0: da74 813d 7403 8cbc abf9 5d3e da07 a13c
000002b0: d7ae 3a3e eaa3 3f3e 6516 283e 26a2 25be
000002c0: 525c 483e afec 22bd 7977 c3bd 4f54 5e3e
000002d0: e0d3 2f3e db0b 2f3e 1ff3 f9bc 024a 8e3b
000002e0: 5366 1c3e 2cfd 0f3d 3bdd cf3d f12a 023e
000002f0: aef6 633e 34d7 24bd 36e2 eb3a 57d1 4f3e
00000300: f158 7f3c 8d56 df3d 11f8 a43c 9299 14bc
00000310: 75fa 51be 8b74 0fbd 6a0e 02be f22a 20be
00000320: 53ae 2c3c be4b 22be cb49 c8bb 5272 0d3e
00000330: 18e1 d7bd 0870 303e 5936 d03c 07d4 bb3b
00000340: 4ce0 3b3e d629 673d 013f 71bc da67 97bc
00000350: b752 dfbd 7094 443d 3fff ff3c e382 323d
00000360: f05e f83d 6732 6cbd 172c 5f3d 682d 9abd
00000370: 00be 843d 72de f63d 6478 d63d 9eca c73d
00000380: 1d92 df3d 8c47 b0bd 87f6 353d 6336 9f3d
00000390: 5848 a43d 14b3 423e 5021 453c fab8 4c3e
000003a0: 0c85 dc3d 2ac5 15be 0518 07be 004c 8d3b
000003b0: 5815 3c3e 0a55 063e 00cc 593d e619 31be
000003c0: eb1c b8bd 2732 84bd c524 563e fc0f ecbd
000003d0: 4870 e0bd 584a 0a3e a339 82bc 13b4 f5bd
000003e0: d563 bc3d 3560 503d 8388 ef3d 1350 133e
000003f0: 857e bdbd 0144 653d 18a5 04be 57c7 b8bc
-0.00573165 0.024209028 -0.17722826 -0.14089848 0.1035774 -0.100882135 -0.17612232 -0.005291702
0.07523294 0.051792074 0.016951853 -0.10293622 0.087530285 0.0085071 0.08109594 -0.017618764
0.044662043 -0.05416426 -0.016000941 0.08150988 -0.18113871 0.000442939 0.16577804 0.14895275
0.027449671 0.03385559 -0.03840403 -0.1278282 -0.1986907 0.05208361 -0.098779336 -0.077132344
0.17136042 -0.06307017 0.049858555 -0.11784158 -0.057579275 0.07775661 0.09146112 0.006555191
0.08754136 0.03228859 -0.014220606 -0.14611281 -0.11967711 -0.06372571 0.10254476 -0.06143399
0.050298788 -0.12118815 0.101481244 0.091238655 -0.021467475 0.03742516 0.017234923 0.14899962
0.013063015 -0.0060680974 -0.08122074 0.057608783 0.0779401 -0.10397482 0.017866014 -0.14074215
0.12856635 0.078727126 0.025088161 -0.17883117 -0.014920737 0.11740844 0.07150085 -0.012269342
0.008033453 -0.025987787 0.010810453 0.14640471 0.015035141 0.055229206 4.593762e-05 -0.18975252
-0.126536 -0.070408866 0.08637668 -0.060863443 0.09639615 -0.094898365 0.16696824 -0.104616
-0.09478184 0.010009826 0.123327814 0.10892742 -0.15723123 -0.19724756 -0.15955417 0.0077909045
0.061636835 -0.03507854 0.05318948 -0.09357362 -0.14390527 -0.067233905 -0.104831 0.11803724
0.10135432 -0.07093817 -0.08572625 -0.07241006 -0.049296714 -0.16926154 0.005256413 -0.078009255
0.06158917 0.03410671 0.0080662705 0.07166261 -0.18240076 0.02484823 0.039289482 0.076142915
-0.0773191 0.022162756 0.12452401 -0.046512865 0.028877947 -0.00024426723 -0.1192963 0.07133499
0.17688945 0.09923271 0.113647796 0.17814408 -0.1720341 0.16683984 -0.039061062 -0.108378775
0.038366094 0.02006572 0.0619553 0.11822259 0.123281084 0.1639014 0.06371396 0.17724544
0.05539146 0.2182943 -0.09880806 0.070374 0.0579874 -0.10113297 0.0133381905 -0.07956475
0.10261988 -0.07698004 0.062953 -0.004098048 0.097733796 0.093830265 0.08725752 -0.076118276
-0.004359514 0.101681136 0.04006223 0.012060779 -0.0561431 -0.1016915 -0.14320736 -0.11957596
0.06321116 -0.01709149 0.21677272 0.019657064 0.18230759 0.18714872 0.16414793 -0.16175136
0.19566467 -0.0397765 -0.09544272 0.21711849 0.17170668 0.17094366 -0.030511437 0.0043423185
0.15273409 0.035153553 0.10149618 0.12711693 0.2226207 -0.040244296 0.0017996493 0.202947
0.01558517 0.1090518 0.020137819 -0.009069817 -0.20505698 -0.035023253 -0.12700811 -0.15641382
0.010539609 -0.15849206 -0.0061123124 0.13813141 -0.1054098 0.17230237 0.02541654 0.0057320627
0.18347281 0.056436382 -0.014724494 -0.018482137 -0.109044485 0.047993124 0.03124964 0.043581855
0.12127483 -0.057665255 0.054485407 -0.07528192 0.06481552 0.12054147 0.104721814 0.09755443
0.10916541 -0.086073965 0.04442456 0.07774045 0.08021611 0.19013625 0.012031868 0.19992438
0.10767564 -0.14625993 -0.13192756 0.0043120384 0.18367517 0.13118377 0.053173065 -0.17295036
-0.08989891 -0.06454878 0.20912464 -0.11526486 -0.10958916 0.13504922 -0.015896624 -0.11997237
0.09198729 0.050873 0.116959594 0.14386015 -0.09252647 0.055973057 -0.12953603 -0.02255599

sequential/dense_2/MatMul f4 [27, 64]
00000000: 70ca de3d a886 d8bc fe03 ca3d c75e 92be
00000010: 8df8 c2bd 1828 7abe 0b87 35bd 6914 61be
00000020: 89be eabd 53c9 6abe 6d7e 1b3e 2112 6ebe
00000030: d217 09bd f329 2abe 5aa9 e0bd 3555 1bbe
00000040: 8fcf 10be a825 6abe f9b2 43be a270 b33d
00000050: 996e 9bbe 55eb 303e 4059 09be 87f7 05be
00000060: 1fa5 cc3a d6fe 07bd fbaa 70bd ea15 1c3e
00000070: bb18 f63d cb88 683d a8c1 dcbd a4b1 103e
00000080: e42d 153e 9377 adbd 43d7 7dbe 2431 e6bd
00000090: cdb9 53be 2992 b13d a8d3 85be b6e1 c7bd
000000a0: 8ea0 dabd f91a fabd 1dbd 60be e83b a13d
000000b0: 66ba 39be 406f 9d3d 79d0 9cbe 0dd0 b93d
000000c0: ffd8 023e 347d 9cbe c309 3a3e cec7 75be
000000d0: 23d6 ac3d 9732 563d a53d 80be 4358 3f3e
000000e0: f0b0 3fbe 2726 d7bd fc5e 283d f0b1 633d
000000f0: 30ae 023d 8aba 16be eb6c ffbd 7893 123d
00000100: 7fcf 5abe e765 8bbd 6c82 873d f1dc 613d
00000110: 49d8 583b ffe9 853d a32e 8f3d 6bc4 023e
00000120: 70e6 b73c e7ed ee3d 4eb7 99be 2c28 26be
00000130: 80c5 eb3d cdb8 793d 7b6c c6bd 7117 053e
00000140: bf7a 69be eb39 e23d 37ce 21be a17d a53c
00000150: aa5b a0bd c07e 533d 69fd 0c3e 9fc8 f73d
00000160: cf13 abbd 4d65 17bd c3c5 30be 6ef6 613d
00000170: 87d9 313e f1e8 02be 70c4 d3bd a79b 7fbd
00000180: ebe3 9ebb 0c5a 1abe eb1f 3e3d f79c 303e
00000190: 3f54 1f3e 938b 37be a94e ab3c 9d52 7bbe
000001a0: eda0 cb3d 36da b4bd 4e15 233c a600 823c
000001b0: d13b f3bc a55e 453e a098 94bd ba3b 223e
000001c0: c294 1b3e 4c7e 5e3e d1a7 ffbd 9244 68be
000001d0: af77 0f3e b208 2ebe dc51 cbbd 794b ce3d
000001e0: 9015 e23d 36e4 0b3c 2aca c6bc 75e0 32be
000001f0: 7b22 66bd a786 3ebe c592 78bd 7a93 b8bd
00000200: ecb1 89bd fc6e d1bd dbb8 59be 3b2f d0bd
00000210: 9826 16be 0164 18be ff9a 33be 5ee0 89be
00000220: ca7b b93c 7a6b 523c 2de2 67be acd9 3e3e
00000230: a31b 5f3e 6413 5fba d8b0 b0be e53d 343d
00000240: ba54 b03d 8bb7 d9bd ba86 a3bd bfe7 07be
00000250: 15d9 81be 03b5 ea3d f197 863d 93c2 b93d
00000260: da40 1cbe 95fe 11be 66dd 0fbe 0773 af3d
00000270: 3553 2abe c15b a4be 1d59 903e bb0a 52be
00000280: 4037 143e 2231 c7bd a21e 8abe 5bf9 673e
00000290: 9038 a4bd bace 04bc e45b 273d 3fa7 6dbe
000002a0: 0298 82be 0cb5 8cbe 357b e3bc 2947 87be
000002b0: d224 88be 3c8c 01be 09a2 4a3e fdf2 3e3e
000002c0: 8258 36be e7f9 3b3e 35ea 32be 9216 ca3c
000002d0: a977 dfbc fa97 0c3a dd20 383e 8c1f 4fbd
000002e0: c8ff 67be 6f9e bbbe b62d 563e 45a0 b9be
000002f0: 8b59 fa3d 5669 8a3d 267d a6be 80c6 03be
00000300: e718 62bd c0d4 4fbe 4e47 cd3d 79b5 f83d
00000310: dc30 e83d 7634 04bd 2a12 21bd e8de 6fbe
00000320: 8422 85be 3540 95be 4276 04be 1d09 28be
00000330: f5a8 ee3d 780e 27be 6ace 95bd ce54 83be
00000340: a431 a4be c18a 8fbe cf9d 5d3d 9a84 48be
00000350: 3d78 2ebe 61bc 84be 64f0 1ebe b0b7 ecbd
00000360: 12af cdbd e3ce 87bd 5488 63be 4337 fa3d
00000370: 2559 763d d41b 3fbe 3b31 8a3d 06da 343e
00000380: 60ab b7be 3937 473d 3eb7 e23d 2c97 4ebd
00000390: 1fbf 3a3e 84db 91be ae07 55be b452 cd3b
000003a0: 406e 42be 35d1 93be 41a3 87be 2104 8cbe
000003b0: 15d0 8b3d 2833 0ebe 3b4a 59be 190e 77be
000003c0: c82d e83d b5d9 f9bd 9131 bdbc d1e0 9fbe
000003d0: 9f62 813d a0e2 dbbd 1503 07be 0eaf bebc
000003e0: 6603 0d3c fc03 c9b8 c090 78be 80e3 9ebe
000003f0: 20bc 483e 90e7 97be d4be 16be 8885 98bb
0.10878456 -0.026431397 0.09864043 -0.28587934 -0.095200635 -0.24429357 -0.04431824 -0.21980442
-0.11462123 -0.22928362 0.15184946 -0.23249103 -0.033469982 -0.16617565 -0.10969801 -0.15169223
-0.14141677 -0.22865927 -0.19111241 0.087617174 -0.30357817 0.17277272 -0.13412952 -0.13082705
0.0015613175 -0.033202015 -0.05875681 0.15242735 0.12016436 0.05677108 -0.107791245 0.14130265
0.14568287 -0.084700726 -0.24789147 -0.112398416 -0.20676346 0.08670456 -0.26138043 -0.09759848
-0.106751546 -0.12212176 -0.21947141 0.07872754 -0.18137512 0.07687235 -0.30627802 0.09072886
0.1277809 -0.30564272 0.18167786 -0.24002 0.08439281 0.05229434 -0.2504703 0.18686013
-0.1871984 -0.10505324 0.04110621 0.055589616 0.0319044 -0.14719597 -0.12471946 0.03578517
-0.21368216 -0.06806546 0.06616673 0.055142347 0.00330879 0.06538772 0.06991317 0.1277024
0.022448748 0.1166647 -0.30022663 -0.16226262 0.115122795 0.060967255 -0.0968866 0.12997223
-0.2280073 0.11046203 -0.15801321 0.020201506 -0.078299835 0.05163455 0.13768543 0.12098812
-0.083533876 -0.036961842 -0.1726294 0.055166654 0.17368136 -0.12784173 -0.10340202 -0.0624043
-0.0048489473 -0.15073413 0.046417158 0.17247377 0.15559481 -0.17924337 0.020911532 -0.24543233
0.099428035 -0.08830683 0.00995381 0.01586945 -0.029691609 0.19274385 -0.072556734 0.15843096
0.15193465 0.21727866 -0.1248318 -0.22682407 0.140105 -0.16995504 -0.09927723 0.10072989
0.11039269 0.008538296 -0.024266321 -0.17468436 -0.056185227 -0.18606053 -0.060686845 -0.09012504
-0.06723389 -0.10226247 -0.21261923 -0.101652585 -0.1466316 -0.14881898 -0.17539595 -0.2692899
0.022642035 0.012843007 -0.22644873 0.18637723 0.21787886 -0.00085096643 -0.3450992 0.04400434
0.0860991 -0.10630711 -0.079846814 -0.13271998 -0.25360933 0.114603065 0.06571949 0.09070315
-0.15259114 -0.14257272 -0.140493 0.085668616 -0.16633303 -0.32101253 0.28192988 -0.20511906
0.14474201 -0.09726168 -0.26976496 0.22653715 -0.08018601 -0.008105928 0.040859118 -0.2320833
-0.25506598 -0.27481878 -0.02776871 -0.26421478 -0.26590592 -0.12651151 0.19788374 0.1864738
-0.178072 0.18357049 -0.17472155 0.024668965 -0.027278738 0.00053632224 0.17981286 -0.050567195
-0.22656167 -0.36644313 0.20915875 -0.36255088 0.1222411 0.067583725 -0.32517356 -0.1286869
-0.05519953 -0.20296001 0.10023366 0.12143988 0.11337444 -0.032276593 -0.039323963 -0.23424876
-0.26002896 -0.2915055 -0.12935737 -0.16409726 0.1165332 -0.16314113 -0.07314761 -0.25650638
-0.32069123 -0.28035548 0.054105576 -0.19581833 -0.17038055 -0.25924972 -0.15521389 -0.11558473
-0.10043158 -0.066312574 -0.22219974 0.122175716 0.06014361 -0.1866296 0.06747671 0.17661294
-0.35872936 0.04863665 0.11070107 -0.050437137 0.1823697 -0.2848779 -0.20803711 0.0062659625
-0.1898737 -0.2887055 -0.2649174 -0.273469 0.06826798 -0.13886702 -0.21219723 -0.24126472
0.11336857 -0.121997274 -0.023094924 -0.3122621 0.063176386 -0.10736585 -0.1318477 -0.023276832
0.008606767 -9.585169e-05 -0.24273968 -0.31032944 0.19603014 -0.29668856 -0.14721233 -0.00465459

sequential/conv2d/Conv2D f4 [16, 5, 5, 3]
00000000: 8d71 523d f556 6b3d af59 fc3c d0b1 8f3c
00000010: b5be 6e3d f3d8 80bd ee6f aa3c 41f9 d6bc
00000020: 4487 cc3d a816 9d3d 8abb a03d fe26 adbd
00000030: 0afc a33a 8c8d 59bd 12e5 6abd 3d7b 983d
00000040: a29e 9fbb 5730 cf3d 2212 18bd 66f8 0cbd
00000050: c2ef 2dbd e468 52bc 19ec 42bc b7c9 94bd
00000060: 39f7 0e3b 83a0 af3c 96f7 ebbd e801 6a3d
00000070: 611f c8bd 8b67 a1bd 52d8 cbbd 47f7 123c
00000080: 6e84 33bd 753c 47bb f083 22bd db18 1fbd
00000090: 8442 a83c 7f72 9fbc b938 a6bc 2952 4fbc
000000a0: 4326 e53d 58f6 843b b6fd 273d 5172 153d
000000b0: 9cc4 87bc f6fc 8ebc 8d76 cdbc 21a0 613c
000000c0: 033a 68bd c35a 77bd 7947 8abc a5fd c2bd
000000d0: 7e6a bb3d 86dd 84bd 2f9a cbbc 3928 d53d
000000e0: 12bc b3bd 5b37 cd3d 903b d13d 3ed0 20bc
000000f0: 9a29 993d 509c da3d 9185 ed3d f984 883d
00000100: 43f7 c7bd dbff 25bd be7b ddbd 0222 c8bd
00000110: a840 fc3c 7fdb e93d d72b 9dbc 374b 1a3d
00000120: 9556 d6bd f718 ebbc cae5 91bc 2810 af3d
00000130: 1eb5 3f3d 2370 8a3d a2fe 36bc bbbf ee3c
00000140: dcb6 583d 4fa7 bc3d acc4 c73d fd66 543d
00000150: 13fc df3c 25a2 6eb9 8189 d33b aaed 75bc
00000160: fe2d 923d 2bab e63d 1bbd 5a3d 96ef 9e3d
00000170: 3c81 a2bc 0217 84bd 158c d13d 9a7b d03d
00000180: 25b1 4bbd 608d 983d ef17 403c 0ba8 133d
00000190: 4676 6b3c b880 f53d a274 703d f4dd ce3c
000001a0: b9fe 36bd ee8e ba3d 56b7 603d 6b81 48bd
000001b0: b601 57bd 2b46 d93c 70b4 cc3d 23e1 6fbd
000001c0: bd4e ebbd 104a 3dbc 552e 503d 9e69 5fbd
000001d0: 4d68 9d3d 927d 1ebd 7f1a 8e3b 633a 8b3d
000001e0: 2112 6abc 2215 863d a6dd 823d 8ec8 e0bd
000001f0: 4345 c9bc 9edc 913c 3efd 103d 665d 833d
00000200: e245 363c 9d82 ffbb 5980 a93c 2fcf a6bd
00000210: 96e0 debd fbf3 c8bd 7f08 e33d 5d56 d8bd
00000220: 7317 b33b 427e 8dbd d412 cabc 7521 2cbd
00000230: 9b50 ac3d d3af 81bd e54b d43d 524a e8bd
00000240: 395f b1bc 3a6d ebbd caa0 7f3c ae3b ae3d
00000250: 4a9a c3bd e1bd db3d 74e3 bcbc c656 b2bd
00000260: b52e 58bd e990 abbd 2199 e5bd 057b b93d
00000270: 1f31 2dbd 567b b83b 3f23 7f3d 5fd3 8fbd
00000280: d49e 2abd 8941 cf3d 3834 13bd 99e3 59bd
00000290: cc88 963c f239 f4bc 9a86 cfbd 6c8d d8bd
000002a0: 8727 5c3d 1aed 573d 6645 d5bd e467 9c3d
000002b0: 9250 5bbd c7e3 e83c caef 19bd c99e 2bbd
000002c0: c5d8 ea3c 179f ed3d 935a 253d ed09 123d
000002d0: 6fde a9bc 40b3 9f3d fe5b c23d 752a 043c
000002e0: a15f cd3d 49a7 833d 8c9f abbd 494a 2bbd
000002f0: 862e 3a3d 3019 aa3d 13fa 36bb 28fe a5bd
00000300: 1fe9 553d 5505 e8bd dd9b 27bc 6666 d3bc
00000310: 235e 24bd fffe a03d 776a 83bb d5af b83d
00000320: 2e45 f93c cf14 e43d b051 debd e761 b9bd
00000330: 93c4 fcbb c340 c93d e3ee c7ba 3e37 d9bd
00000340: f416 dc3d 927c 083c cb1f 473d ea58 b23d
00000350: b208 b33c a5c9 203c 9d66 f6bc 8bce b73d
00000360: 3afd bbbd fb10 2a3d 6ebb 9bbc 5e3e aa3d
00000370: f2f3 70bd c6f1 d7bd bbb6 2c3d 58f9 303d
00000380: ec7d e5bc 670e 593c 0c17 b73d 0f8c bebd
00000390: d95d 6abc 71db 923d 0c40 64bd 48fb d3bd
000003a0: 8f60 84bd f319 a83d 9112 c83d 4340 a0bd
000003b0: 42bc 10bd 6d76 4d3d cb8c a93d 20b2 4d3c
000003c0: d7a4 083d 470e edbd 2dfb 93bd 5073 943d
000003d0: 01e6 d8bd 9f4c 9fbd 5276 a83d 165d 133d
000003e0: 6245 00bd b1c9 c6bd bb5d 96bc 667f 52bd
000003f0: 493b 32ba 6320 ddbd f2e2 a53d aabf da3d
0.05137782 0.057455976 0.030804483 0.017540842 0.05828734 -0.0629138 0.020805325 -0.0262419
0.09986737 0.07670337 0.0784827 -0.08454703 0.0012511027 -0.053113505 -0.057347365 0.07445381
-0.0048712054 0.10116642 -0.037126668 -0.03441658 -0.04246498 -0.012842391 -0.01189711 -0.072650366
0.0021814837 0.021438843 -0.11521833 0.057130724 -0.0977161 -0.078810774 -0.09953369 0.008970088
-0.043827467 -0.0030401025 -0.039676607 -0.038842063 0.02053953 -0.019463776 -0.02029072 -0.012653866
0.111889385 0.004057687 0.041013442 0.036485974 -0.016573243 -0.017454606 -0.025080943 0.013771088
-0.05669595 -0.06038929 -0.016879784 -0.09521035 0.09151171 -0.06487565 -0.024853794 0.104080625
-0.08776106 0.10020324 0.10216439 -0.009815274 0.07478638 0.106743455 0.115977414 0.066659875
-0.09763958 -0.040527206 -0.108146176 -0.097721115 0.03079255 0.11418819 -0.019185944 0.037669387
-0.10465733 -0.028698428 -0.017809767 0.085480034 0.046803586 0.0675967 -0.011169108 0.029144159
0.052908763 0.09211599 0.09754309 0.05185603 0.027341878 -0.00022757852 0.0064556007 -0.015010277
0.071376786 0.112631164 0.053403 0.07760541 -0.019837014 -0.06449701 0.10231797 0.10179825
-0.049729485 0.0744884 0.011724456 0.03604893 0.01437146 0.11987442 0.05870498 0.02525232
-0.044676516 0.09109293 0.054862343 -0.048951548 -0.052491866 0.026522717 0.09995353 -0.058564316
-0.114896275 -0.011553302 0.050825436 -0.054544084 0.076859094 -0.038693972 0.0043366547 0.06798246
-0.014286549 0.065469995 0.06389932 -0.10975753 -0.02456916 0.017805394 0.03539776 0.06414299
0.01112506 -0.0077975527 0.020691084 -0.08144986 -0.1088268 -0.098121606 0.11085605 -0.105633475
0.005465442 -0.069088474 -0.024667181 -0.042024095 0.08413812 -0.06332364 0.10366038 -0.113423005
-0.021651851 -0.11495443 0.0156023 0.08507477 -0.09550913 0.10729576 -0.023057677 -0.08707957
-0.05277892 -0.08377249 -0.11210848 0.09056667 -0.042283174 0.005629937 0.062289473 -0.07022738
-0.041655377 0.10119922 -0.03593847 -0.05319557 0.018375777 -0.029812787 -0.10133095 -0.10573849
0.053748634 0.052716352 -0.10413627 0.07637003 -0.053543635 0.028428925 -0.037582196 -0.041899476
0.028667817 0.116026096 0.04036958 0.035653997 -0.020735947 0.07797861 0.09490202 0.008066763
0.100280054 0.064283915 -0.083800405 -0.04181889 0.045454524 0.083055854 -0.0027920052 -0.08105117
0.052224275 -0.11329142 -0.010230032 -0.025805663 -0.04012884 0.07861137 -0.0040104943 0.09017912
0.030428495 0.111367814 -0.108554244 -0.090518765 -0.007713863 0.098268054 -0.0015253689 -0.1060624
0.107465655 0.008330481 0.048614305 0.08708365 0.021854732 0.009813701 -0.030078227 0.08974942
-0.091791585 0.0415201 -0.019010272 0.08312677 -0.058826394 -0.105441615 0.042166453 0.043206543
-0.028014146 0.013248063 0.08939943 -0.09304058 -0.014304602 0.071707614 -0.055725142 -0.103506625
-0.064637296 0.082080744 0.09769166 -0.07824757 -0.035335787 0.050161768 0.08278807 0.012554675
0.03336033 -0.11574989 -0.07225642 0.072485566 -0.10590745 -0.07778286 0.08225693 0.035977446
-0.03131617 -0.09706438 -0.018355241 -0.051391028 -0.00067989953 -0.10797193 0.08099927 0.10681088

sequential/conv2d_1/Conv2D f4 [32, 5, 5, 16]
00000000: da08 b53c c0bd 94bb 4aad 633d 6fa8 2f3c
00000010: ead1 1abd eb8f 983c 2043 07bd c61d 8cbd
00000020: 91a0 14bd 7b25 473d fcde b4bc 70cd 793d
00000030: 5bea 5b3d 5c3a 2ebd 5ad9 2fbd 30dc f9bb
00000040: 28bd a9bd 7bf3 553d 9c8a 123d 5114 c9b9
00000050: e399 473d 2a8d 623d 375c 8e3d fa84 153d
00000060: 10c4 05bd 76f7 f03c 9985 8cbc 87b9 453d
00000070: e5c0 693c 4760 88bc 2426 a3bc 0785 5e3c
00000080: fedb 41bd acaa 4a3d 98ed d73a e669 b03c
00000090: 5e08 93bc 13a0 333d ec97 92bc 602d c4bc
000000a0: a4a4 9dbb a643 20bc 1cc7 1f3d 53c7 623d
000000b0: 7f8e 703c f00a 743c 7564 22bd e562 803d
000000c0: 935e a7bc 5b54 04bd 0a56 18bd ecd5 44bd
000000d0: 83c8 8bbc 3944 3dbd 3983 2d3d ad22 fdbc
000000e0: 9d2a 643c 3222 4b3c 037b 59bd 61dd 82bd
000000f0: 81db 8b3d 1fa7 e73c 7e40 173d 8c05 1cbd
00000100: 62a2 593d 7996 053d 5a8f b53c bc52 6f3d
00000110: 768f d73b c6dd d3bb 4efb 133b 0371 7d3d
00000120: 16aa 2a3c 2f3e d4bb 985f 46bd 8f3f 2a3d
00000130: a5b9 10bd 9120 633d 507c 65bc 66f6 223d
00000140: 9a2d 473d 30dc ee3c 5ff0 faba 90f3 d1bc
00000150: 6cbe 01bd f819 06bd 2751 d4bc 27ae a4bc
00000160: cac6 1e3d 239b 90bd b7c5 0f3b 1887 53bc
00000170: e110 0fbd b61e 26bd 30e5 3ebd 410c f13c
00000180: eed9 213d 8abf 8a3d ab18 3ebd a7e4 3f3c
00000190: 032f 49bc 7764 8a3c 0f37 86bd b0cd 4b3d
000001a0: 8136 abbd 4a51 b6bd 9961 73bd 6834 343d
000001b0: 0949 82bd f7d0 3abb ca6a bb3c 1c7c 6abd
000001c0: 0cde 20bd 9043 2b3c c6d8 22bd 6e07 993d
000001d0: 2e70 2ebd db40 963c 9659 55bd 01ab b93c
000001e0: 2d75 9c3c 59da 2ebd fad8 32bc a74d 733d
000001f0: ecf1 c9bc d8a2 87bd b80e 06b9 a031 d73c
00000200: 919e a7bc e044 df3c 21c8 1b3d 47b4 bc3c
00000210: a502 88bd c610 a93c 22ad 933c 9027 42bd
00000220: fe30 61bb 27cf e33a c61d 363c 93b6 6e3d
00000230: 61b0 84bd c059 43bd d225 6abd 2a4b 6b3b
00000240: 70fc 943c b089 7b3d 4a0f 0e3c 507a 983d
00000250: 4bdc 8dbd 4001 6cbd 4b92 5aba c041 7fbd
00000260: ee7d 193c 8522 b13c 86da fabb 2132 84bd
00000270: b620 ac39 f849 b7bc 69c2 41bd 960d e73c
00000280: e7e2 51bd ffc5 16bd 5f0c 283c 323a ecbb
00000290: 238f 30bd fb7e 0ebd 08af 5cbd 969e 343b
000002a0: bab6 4fbd 4e92 51bd 7a20 173d 4cf4 5a3d
000002b0: 6dc1 8ebd c488 073d e233 0c3d 1637 fc3c
000002c0: c7e6 50bd bab1 6abd 9e66 28bd acd5 843d
000002d0: 19cd 2ebb fa58 873d f6ff 61bd 1ff8 1ebd
000002e0: 7211 85bd 3420 303c 582a 8d3d f6f9 8c3d
000002f0: 2317 42bd d796 63bd dced 003b cb70 2d3d
00000300: 3627 83bd bbc7 c7bc abab 7f3c b2b6 123a
00000310: ba80 17bd 6fbf 2339 32d8 cabc 0cf9 9c3c
00000320: fc2d 80bd 1c54 46bc 6240 85ba ed88 6c3c
00000330: 38cd 503d 8ec1 56bd fae0 be3c 63b2 f53b
00000340: cd94 babc 4b0a d6bc 0343 8e3c 539b a53c
00000350: 4258 843b a11a 4639 3a48 1dbc dd9c 6e3d
00000360: 9a1b 47bd 0649 6d3d af3f c8bb feef 523d
00000370: d0b8 18bd d41e f4bc bd22 5f3d 1f6c 19bc
00000380: ad2b 10bd 897d 243d f147 e13c 8527 ac3d
00000390: 3701 ca3c 54da 853d 1806 0bbd ba36 28bc
000003a0: c6c8 4e3c 6af3 77bd 6ca7 8a3d d790 7b3a
000003b0: 59c1 25bd adde 39bd 1510 663d ba6c 37bc
000003c0: ab85 303c f5a3 47bc 368a 8fbd ed0d cdbc
000003d0: 48a7 00bd 98e5 253d 29d9 82bd e491 123c
000003e0: 49d2 87bd 8a6e 50bd cc40 8d3d 6798 37bc
000003f0: 6c76 693d 4622 1e3d 52f4 b7bc a6b4 6fbd
0.022098947 -0.0045392215 0.055585183 0.01072131 -0.037797846 0.018623313 -0.033023 -0.06841616
-0.03628594 0.04861973 -0.022078983 0.060986936 0.053690296 -0.042536125 -0.042931892 -0.0076251253
-0.08288032 0.052234154 0.03577672 -0.00038352844 0.048730742 0.055310406 0.06951182 0.03650377
-0.032657683 0.029414874 -0.017153548 0.048272636 0.014267181 -0.016647471 -0.019915648 0.013581521
-0.04732894 0.04947917 0.0016474007 0.021534871 -0.017948326 0.04385383 -0.017894708 -0.023947418
-0.0048108865 -0.009781754 0.039008245 0.05536587 0.014682411 0.014895186 -0.039646585 0.06268863
-0.020430839 -0.03230701 -0.03719143 -0.048055574 -0.017063385 -0.04620764 0.04236147 -0.030900324
0.013926175 0.0123982895 -0.05309583 -0.06389881 0.068289764 0.028277932 0.03692674 -0.038091227
0.053133376 0.032614205 0.022163082 0.05842851 0.006578381 -0.0064656464 0.002258021 0.061875354
0.010416528 -0.0064771394 -0.04843101 0.04156452 -0.035333294 0.05545098 -0.014006689 0.039785765
0.048627473 0.029157728 -0.0019145122 -0.025628835 -0.03167574 -0.03273961 -0.025917603 -0.020102574
0.0387638 -0.0706084 0.0021937916 -0.012910627 -0.034928206 -0.040556632 -0.04660529 0.029424788
0.039514475 0.067748144 -0.046410244 0.01171223 -0.012279275 0.016893608 -0.0655347 0.049756706
-0.08360005 -0.089022234 -0.05941925 0.04399529 -0.063615866 -0.00285059 0.02287807 -0.057247266
-0.03927426 0.01045312 -0.039757513 0.0747212 -0.04258745 0.018341472 -0.05208739 0.022664549
0.019098843 -0.0426887 -0.010915989 0.059400227 -0.02465149 -0.06622857 -0.00012784719 0.02626878
-0.020461353 0.027254522 0.038032655 0.023035182 -0.066411294 0.020637881 0.018026892 -0.04740101
-0.0034361477 0.0017380462 0.011115497 0.058279585 -0.06478954 -0.047693014 -0.057164975 0.0035902956
0.018186778 0.061410606 0.008670637 0.07445204 -0.06926783 -0.05761838 -0.00083378394 -0.062318563
0.009368403 0.021622906 -0.0076554446 -0.06454874 0.00032830768 -0.022374138 -0.047304545 0.02820472
-0.05124178 -0.036809918 0.010256856 -0.007209086 -0.043105256 -0.034789067 -0.05387786 0.0027560345
-0.05071137 -0.051164918 0.036896206 0.053455636 -0.06970487 0.033089414 0.034229167 0.030787986
-0.051001336 -0.0572984 -0.04111349 0.06486067 -0.002667254 0.06608768 -0.055175744 -0.038810845
-0.06497468 0.010749865 0.06892842 0.06883614 -0.047385346 -0.055563774 0.0019673025 0.042343896
-0.06403963 -0.024387231 0.015604894 0.0005596682 -0.036987998 0.00015616206 -0.024761293 0.019161724
-0.06258771 -0.012105014 -0.0010166282 0.0144369425 0.05097696 -0.052430682 0.023300637 0.007498072
-0.022776032 -0.026127955 0.017365938 0.020215666 0.0040388415 0.00018892672 -0.00959974 0.058255065
-0.048610307 0.05793097 -0.0061111073 0.051498406 -0.037285626 -0.029799856 0.05447649 -0.009364157
-0.035197902 0.040158782 0.027500125 0.08405975 0.024658782 0.065357834 -0.03394136 -0.010266954
0.01262111 -0.060534872 0.067702144 0.0009596473 -0.040467594 -0.045378376 0.05616768 -0.011195356
0.010774056 -0.0121850865 -0.070087835 -0.025031054 -0.03140953 0.04050216 -0.06389076 0.008945916
-0.066319056 -0.05088667 0.06897125 -0.011205769 0.0569977 0.038606904 -0.022455368 -0.05852189
